…
replay_cfg = dict(type='ReplayMemory', capacity=1000000)
work_dir = './work_dirs/OpenCabinetDrawer_1045_link_0-v0/SAC'

OpenCabinetDrawer_1045_link_0-v0 - INFO - 2022-04-19 08:31:48 - Set random seed to None
OpenCabinetDrawer_1045_link_0-v0 - INFO - 2022-04-19 08:31:51 - State shape:75, action shape:Box(-1.0, 1.0, (13,), float32)
OpenCabinetDrawer_1045_link_0-v0 - INFO - 2022-04-19 08:31:54 - We do not use distributed training, but we support data parallel in torch
OpenCabinetDrawer_1045_link_0-v0 - INFO - 2022-04-19 08:31:54 - SAC(
  (policy): ContinuousPolicy(
    (backbone): LinearMLP(
      (mlp): Sequential(
        (linear0): Linear(in_features=75, out_features=256, bias=True)
        (act0): ReLU()
        (linear1): Linear(in_features=256, out_features=256, bias=True)
        (act1): ReLU()
        (linear2): Linear(in_features=256, out_features=256, bias=True)
        (act2): ReLU()
        (linear3): Linear(in_features=256, out_features=26, bias=True)
      )
    )
    (policy_head): GaussianHead()
  )
  (critic): ContinuousValue(
    (values): ModuleList(
      (0): LinearMLP(
        (mlp): Sequential(
          (linear0): Linear(in_features=88, out_features=256, bias=True)
          (act0): ReLU()
          (linear1): Linear(in_features=256, out_features=256, bias=True)
          (act1): ReLU()
          (linear2): Linear(in_features=256, out_features=256, bias=True)
          (act2): ReLU()
          (linear3): Linear(in_features=256, out_features=1, bias=True)
        )
      )
      (1): LinearMLP(
        (mlp): Sequential(
          (linear0): Linear(in_features=88, out_features=256, bias=True)
          (act0): ReLU()
          (linear1): Linear(in_features=256, out_features=256, bias=True)
          (act1): ReLU()
          (linear2): Linear(in_features=256, out_features=256, bias=True)
          (act2): ReLU()
          (linear3): Linear(in_features=256, out_features=1, bias=True)
        )
      )
    )
  )
  (target_critic): ContinuousValue(
    (values): ModuleList(
      (0): LinearMLP(
        (mlp): Sequential(
          (linear0): Linear(in_features=88, out_features=256, bias=True)
          (act0): ReLU()
          (linear1): Linear(in_features=256, out_features=256, bias=True)
          (act1): ReLU()
          (linear2): Linear(in_features=256, out_features=256, bias=True)
          (act2): ReLU()
          (linear3): Linear(in_features=256, out_features=1, bias=True)
        )
      )
      (1): LinearMLP(
        (mlp): Sequential(
          (linear0): Linear(in_features=88, out_features=256, bias=True)
          (act0): ReLU()
          (linear1): Linear(in_features=256, out_features=256, bias=True)
          (act1): ReLU()
          (linear2): Linear(in_features=256, out_features=256, bias=True)
          (act2): ReLU()
          (linear3): Linear(in_features=256, out_features=1, bias=True)
        )
      )
    )
  )
)
OpenCabinetDrawer_1045_link_0-v0 - INFO - 2022-04-19 08:31:54 - Rollout state dim: (8, 75), action dim: 8
OpenCabinetDrawer_1045_link_0-v0 - INFO - 2022-04-19 08:32:05 - Finish 4000 warm-up steps!
OpenCabinetDrawer_1045_link_0-v0 - INFO - 2022-04-19 08:32:26 - 5600/1000000(1%) Passed time:20s ETA:3h29m38s episode_length:200.00 episode_reward:-2619.05 critic_loss:0.51 max_critic_abs_err:2.36 policy_loss:17.35 alpha:0.80 alpha_loss:17.35 q:-24.38 q_target:-24.29 log_pi:-8.79 memory:8.89G gpu_mem_ratio:6.1% gpu_mem:1.93G gpu_mem_this:1.92G gpu_util:9%
…
